Assets/AI Data/RoomDecorAgent.onnx (onnx, 32431 bytes, 11 tensors)

discrete_act_size_vector f4 [1, 4]
25.0 6.0 4.0 3.0
00000000: 0000 c841 0000 c040 0000 8040 0000 4040

network_body._body_endoder.seq_layers.0.weight f4 [20, 230]
-0.1899779 -0.2687314 -0.216625 0.00078601827 0.109415494 -0.035032652 -0.25258073 -0.15892652
-0.01590048 0.03447812 -0.10321128 -0.029265054 0.00058077066 0.6561458 -0.08280634 -0.01909888
0.025751252 -0.013817973 0.0075249444 0.043374225 0.1488125 -0.2158775 -0.15167265 -0.089773625
0.017658055 -0.039472576 -0.081534766 0.720493 -0.11383692 -0.025919857 0.04109691 -0.00818235
0.070274025 0.07134871 -0.9482516 -0.13980845 -0.02477863 -0.09260403 -0.05388814 -0.009450526
0.06500563 -1.8105699 -0.2179994 -0.05932768 -0.0076489695 -0.021266216 -0.017660234 0.0026212758
-0.0026380313 -0.11028705 0.03741911 -0.045059368 -0.010331292 -0.060946666 0.054474182 0.35839647
-0.22617808 -0.13980225 0.0135528175 0.0018715546 -0.05581562 0.014642604 0.2813695 -0.14402601
0.09804916 -0.018868946 0.021861466 0.002338529 -0.02418759 0.18165834 -0.11891129 -0.06980919
0.045316715 0.009430675 0.0718605 -0.030784437 0.90411675 -0.1354254 0.011800455 0.08086924
-0.039472375 -0.027187182 0.252204 0.23869768 -0.22114488 -0.052739747 -0.059805617 0.038376976
0.007425418 0.040560152 -0.4273341 -0.25844935 -0.051254876 -0.07445419 0.010404048 -0.06321895
0.058559697 0.1284586 -0.037540015 0.14149696 -0.151001 0.04640627 -0.020781035 -0.13111497
0.3479912 -0.22922316 -0.041541383 0.11076916 0.015108392 -0.1286584 0.028197672 -1.1022803
-0.23905979 -0.06640244 0.020955821 0.0011801763 -0.00066132745 -0.09433133 0.59875745 -0.2501503
0.05471349 -0.019435177 0.040060245 0.01546647 0.036908705 -0.6381051 -0.20611286 -0.0029838616
-0.006644039 0.09299781 0.031895407 -0.064604826 -0.97077405 -0.26499104 -0.025046192 0.067238815
-0.047280632 0.006940652 -0.085093 0.8037955 -0.13083726 0.03003325 -0.04381344 -0.013127319
-0.03264204 -0.13844946 -0.47246557 -0.1722045 0.0060535194 -0.009397408 -0.08691893 -0.06290579
-0.020364031 -1.0493343 -0.15435338 -0.07984666 -0.07656572 -0.012318869 0.082337715 0.024237327
0.49993697 -0.20042229 0.005689018 -0.039996374 -0.04676254 0.04474286 0.015122487 0.0730109
-0.19403961 0.034929674 0.0037253636 0.11951181 0.052977495 0.14315155 0.111390546 -0.13115478
0.06184497 0.026920771 0.06875379 -0.09286846 0.04810984 -0.06824111 0.054030165 0.014094622
0.08965341 0.025932755 -0.054238874 -0.08957667 -0.038332596 0.02172078 0.021508519 0.0028665618
0.0063763284 0.23174895 -0.08613712 0.105045795 -0.023222722 -0.04801797 -0.03316922 -0.056723073
-0.096109286 -0.07450414 -0.06084087 -0.062094986 0.032594226 0.11898093 0.07488578 -0.0039318744
0.0805912 -0.107883476 -0.037434164 0.010394959 -0.052961487 -0.05363595 0.03326987 -0.020159734
0.009968596 0.08120265 -0.109276175 0.15162523 0.09750291 0.060551085 -0.012449284 -0.06794681
0.06712338 0.038442876 -0.054392505 0.10728037 0.0033441028 0.030087443 0.7504185 0.17040017
-0.4432752 0.1562823 -0.035967637 -0.17376381 -0.31467077 0.15211761 -0.042480897 -0.00040910795
-0.04822128 0.0012814526 0.10816676 0.2328954 0.25451592 -0.14543355 -0.051704887 -0.011578588
-0.06502264 -0.018100593 1.3706292 0.23882267 -0.013845973 0.044983096 0.041882683 0.085750766
00000000: 9189 42be 2997 89be f2d2 5dbe cb0c 4e3a
00000010: 3b15 e03d 667e 0fbd 4352 81be a2bd 22be
00000020: b941 82bc ee38 0d3d 7060 d3bd 44bd efbc
00000030: dc3e 183a 2cf9 273f 5f96 a9bd 4175 9cbc
00000040: 4af4 d23c c864 62bc cf93 f63b 2ca9 313d
00000050: 4e62 183e fe0e 5dbe 1350 1bbe 3cdb b7bd
00000060: a0a7 903c ffad 21bd b3fb a6bd 3b72 383f
00000070: 5523 e9bd e155 d4bc 3c55 283d 430f 06bc
00000080: d4eb 8f3d 461f 923d 9ec0 72bf f229 0fbe
00000090: 8efc cabc 2fa7 bdbd cfb9 5cbd 61d6 1abc
000000a0: ac21 853d c1c0 e7bf 3c3b 5fbe 9501 73bd
000000b0: 35a4 fabb 7d36 aebc 32ac 90bc b6c9 2b3b
000000c0: d2e2 2cbb 2dde e1bd c844 193d 2c90 38bd
000000d0: 9444 29bc 36a3 79bd 5220 5f3d be7f b73e
000000e0: 3a9b 67be 5228 0fbe a30c 5e3c f44e f53a
000000f0: eb9e 64bd 88e7 6f3c aa0f 903e 8e7b 13be
00000100: ffcd c83d 0c93 9abc d116 b33c 0242 193b
00000110: 0e25 c6bc a504 3a3e c387 f3bd 1ff8 8ebd
00000120: 059e 393d 1e83 1a3c 992b 933d a52f fcbc
00000130: 3274 673f f5ac 0abe b256 413c c69e a53d
00000140: c9ad 21bd a7b7 debc e220 813e 2a6d 743e
00000150: ce73 62be a205 58bd bcf6 74bd 2d31 1d3d
00000160: ec50 f33b 6722 263d 89cb dabe 7953 84be
00000170: a2f0 51bd 707b 98bd bd75 2a3c f078 81bd
00000180: 4bdc 6f3d a78a 033e 8fc3 19bd 94e4 103e
00000190: 02a0 1abe 8014 3e3d fd3c aabc 0143 06be
000001a0: e72b b23e 7ab9 6abe 4c27 2abd f1da e23d
000001b0: 3089 773c 07bf 03be cefe e63c 8517 8dbf
000001c0: 17cc 74be 01fe 87bd 8bab ab3c 25b0 9a3a
000001d0: ef5c 2dba c930 c1bd 2b48 193f b313 80be
000001e0: 411b 603d 8536 9fbc 3616 243d 1467 7d3c
000001f0: 952d 173d db5a 23bf 400f 53be e48c 43bb
00000200: 3db6 d9bb a375 be3d c2a4 023d 894f 84bd
00000210: a684 78bf e8ac 87be ac2d cdbc 81b4 893d
00000220: 56a9 41bd 696e e33b 3d45 aebd 8bc5 4d3f
00000230: 34fa 05be 4a08 f63c b975 33bd f713 57bc
00000240: a9b3 05bd b2c5 0dbe 02e7 f1be 6056 30be
00000250: 9a5c c63b 96f7 19bc 8d02 b2bd c0d4 80bd
00000260: 78d2 a6bc 9650 86bf d00e 1ebe a586 a3bd
00000270: 7dce 9cbd 15d5 49bc ada0 a83d 5c8d c63c
00000280: bdf7 ff3e 803b 4dbe f16a ba3b 3dd3 23bd
00000290: 148a 3fbd 4a44 373d 4fc4 773c bd86 953d
000002a0: 52b2 46be 6b12 0f3d 3b25 743b 9cc2 f43d
000002b0: eefe 583d 5296 123e ba20 e43d 704d 06be
000002c0: 2751 7d3d f388 dc3c c9ce 8c3d d231 bebd
000002d0: d30e 453d ffc1 8bbd bc4e 5d3d 21ed 663c
000002e0: 359c b73d ee70 d43c 9529 5ebd f973 b7bd
000002f0: a402 1dbd c7ef b13c a232 b03c eddc 3b3b
00000300: 85f0 d03b 994f 6d3e a968 b0bd 4022 d73d
00000310: 943d bebc 7eae 44bd 73dc 07bd 7456 68bd
00000320: f2d4 c4bd a095 98bd 4734 79bd 5057 7ebd
00000330: 8681 053d 46ac f33d b75d 993d f4d6 80bb
00000340: 000d a53d 03f2 dcbd 9154 19bd 9e4f 2a3c
00000350: 25ee 58bd 5fb1 5bbd fd45 083d 0726 a5bc
00000360: 5253 233c 934d a63d 30cc dfbd a543 1b3e
00000370: 9baf c73d 6a04 783d 15f8 4bbc b227 8bbd
00000380: fc77 893d 4776 1d3d adca 5ebd d0b5 db3d
00000390: bc28 5b3b f179 f63c 6d1b 403f 627d 2e3e
000003a0: f8f4 e2be 7808 203e cd52 13bd 24ef 31be
000003b0: 871c a1be b8c4 1b3e 7300 2ebd 8a7d d6b9
000003c0: ad83 45bd 6af6 a73a 8986 dd3d 227c 6e3e
000003d0: e94f 823e 88ec 14be 81c8 53bd 1eb4 3dbc
000003e0: 972a 85bd b247 94bc c770 af3f ee8d 743e
000003f0: 38da 62bc 3240 383d 2d8d 2b3d 199e af3d

network_body._body_endoder.seq_layers.0.bias f4 [20]
-0.15495287 0.22085458 0.05086774 0.16864125 0.12501125 -0.028478071 0.02333762 0.10924383
-0.013094528 0.087221436 0.020302026 0.104478136 0.07054123 0.11972193 0.19857357 -0.024779238
0.025146775 0.0370229 0.13226858 0.1824583
00000000: f7ab 1ebe b427 623e b15a 503d 4bb0 2c3e
00000010: f302 003e d84a e9bc 892e bf3c 3bbb df3d
00000020: 6e8a 56bc 27a1 b23d 6f50 a63c a2f8 d53d
00000030: ec77 903d c530 f53d df56 4b3e d4fd cabc
00000040: 9c00 ce3c 53a5 173d 6a71 073e 59d6 3a3e

action_model._discrete_distribution.branches.0.weight f4 [25, 20]
-0.57732135 0.48177868 0.02777412 0.19224313 0.25308412 0.42513725 0.38623697 0.5081828
0.7412973 0.11386249 -0.26876396 0.3106153 0.04725065 0.35944933 -0.0026106734 0.32407236
0.8153161 0.16250314 0.7673705 0.26399097 0.2739671 -0.12951916 0.62128943 0.53372383
0.34568068 0.31840912 0.569894 0.6314916 0.48412526 0.19709596 0.16959518 0.31227812
0.22847404 0.11105157 0.29755518 0.23975259 0.38098258 0.5553751 -0.07306012 0.091846
-0.17833844 -0.52110684 0.5063478 -0.024194065 0.091710344 0.52051944 0.68248266 -0.053086642
0.080256976 0.633402 1.0265617 -0.36245346 0.23960541 0.5250014 -0.0693837 0.043216094
0.7767912 1.0546126 0.23916936 0.9132991 0.35916412 0.65606284 0.48735893 0.8823444
0.12483521 0.29813707 -0.27643275 -0.10168203 0.16158608 0.7785408 -1.0355965 0.050235134
0.5403851 0.07672846 1.2762967 -0.32046896 1.257597 -0.20094705 -0.77017576 0.28990138
-0.91589653 -0.42101428 0.28000718 0.8647508 0.4715812 0.49841255 0.98450226 0.40480557
0.29451966 0.40750855 -0.008324756 0.11192374 0.3698677 -0.14566551 -0.47663864 0.26295027
0.011539035 0.15617041 0.3693813 -0.15927593 -1.6473253 0.18703946 -0.34753978 -0.2453076
0.52406824 0.06787712 -1.0164107 0.9278368 0.04502593 0.44193307 -0.4281539 0.76152897
0.42680442 0.80429006 -0.3290541 0.82941645 0.64293945 1.2556512 0.46683905 -0.075061806
-0.48122513 0.40260074 0.28477678 0.04097711 0.035281476 0.31737667 0.59306484 0.04009404
0.5212662 0.42194167 0.28871128 0.1490679 0.23881152 0.14118493 0.3509886 0.6545362
0.4240767 0.43276986 0.3736011 0.02304851 -0.07607571 0.09880566 0.9802255 0.27332625
-0.09629483 0.40603894 -0.37741208 -0.042126108 0.41891468 0.40174425 0.58878684 -0.07117419
0.32240152 0.4049773 0.22879465 0.29553965 0.66902715 0.53127587 -0.08083127 0.8337881
0.09360323 0.43191823 -0.99435866 0.36880377 0.68841237 -0.20991081 0.8983327 -0.46694887
-0.51885307 -0.64773816 -0.5667894 0.5546711 0.31089973 0.41835234 -0.058716655 0.23317
0.37554082 0.034347214 0.6310366 1.6001568 -0.15379044 0.20890938 0.00073268125 0.22594489
0.04170191 0.23578967 0.74963415 0.80489045 0.0081023695 0.37672076 0.30169258 0.23623164
0.30384597 0.1089029 0.45019904 0.1278311 0.17200014 0.26171955 0.13183126 0.26475936
0.6159535 0.4937848 0.5372062 -0.6284444 1.4094739 0.09968086 0.08713462 0.19534591
0.8352723 0.55044854 0.7855539 0.68839616 0.5162542 -0.3750778 0.10074225 -0.51801896
0.6635503 -0.17409115 0.833986 0.38155428 -0.21063928 0.093574904 -0.073034905 0.5979118
0.48944917 0.57448006 -0.4857008 0.25502026 1.0244553 0.46560994 1.0153451 0.009674714
0.29025334 0.504402 0.02620395 1.122131 0.076913714 -0.5588999 0.10487858 0.54020566
-0.75544214 0.35794246 0.4856527 0.117990874 -0.107564956 1.0659906 0.19839479 -0.051200535
-0.02937529 0.3504228 0.87889236 0.7115083 0.7486149 0.40161905 0.20016153 -0.014993587
00000000: 55cb 13bf b2ab f63e 8d86 e33c 62db 443e
00000010: 3e94 813e 97ab d93e dac0 c53e 4518 023f
00000020: a9c5 3d3f bd30 e93d 6e9b 89be f808 9f3e
00000030: e689 413d be09 b83e d517 2bbb d0ec a53e
00000040: 8eb8 503f 3967 263e 6572 443f d329 873e
00000050: 6a45 8c3e aca0 04be d30c 1f3f 20a2 083f
00000060: 0ffd b03e 8506 a33e 93e4 113f 6fa9 213f
00000070: 44df f73e 86d3 493e 5caa 2d3e ebe2 9f3e
00000080: 19f5 693e 016f e33d 2759 983e b481 753e
00000090: 2610 c33e 102d 0e3f 8ba0 95bd c119 bc3d
000000a0: 5a9e 36be 4267 05bf 02a0 013f a232 c6bc
000000b0: a2d2 bb3d c340 053f 2fb7 2e3f 6171 59bd
000000c0: c55d a43d a226 223f 6066 833f 8093 b9be
000000d0: 1f5b 753e 7e66 063f 0b19 8ebd 5c03 313d
000000e0: cadb 463f 8cfd 863f d0e8 743e f8cd 693f
000000f0: 5ce4 b73e bcf3 273f 1c87 f93e 53e1 613f
00000100: 9aa9 ff3d 6ca5 983e 9888 8dbe ab3e d0bd
00000110: d276 253e 734e 473f 6d8e 84bf 5bc3 4d3d
00000120: ae56 0a3f d023 9d3d b15d a33f 8214 a4be
00000130: f0f8 a03f 10c5 4dbe 3d2a 45bf f46d 943e
00000140: 3278 6abf 2f8f d7be 1a5d 8f3e 4f60 5d3f
00000150: 1773 f13e ee2f ff3e 5708 7c3f ad42 cf3e
00000160: 48cb 963e f6a4 d03e 8f64 08bc 4638 e53d
00000170: 4d5f bd3e 5729 15be fb09 f4be 6ba1 863e
00000180: 380e 3d3c 23eb 1f3e 8c1f bd3e 3b19 23be
00000190: 8edb d2bf 4687 3f3e bcf0 b1be ea31 7bbe
000001a0: 5629 063f 2903 8b3d bf19 82bf b686 6d3f
000001b0: 1c6d 383d 0d45 e23e fd36 dbbe 90f3 423f
000001c0: 1c86 da3e f4e5 4d3f c779 a8be a354 543f
000001d0: ae97 243f 2eb9 a03f 8705 ef3e 01ba 99bd
000001e0: 2463 f6be af21 ce3e 43ce 913e 9dd7 273d
000001f0: 4f83 103d 327f a23e 19d3 173f a639 243d
00000200: b471 053f bd08 d83e f7d1 933e 41a5 183e
00000210: 028b 743e c892 103e c7b4 b33e af8f 273f
00000220: 9520 d93e 0394 dd3e a548 bf3e 3bd0 bc3c
00000230: 95cd 9bbd 9f5a ca3d 0ff0 7a3f 6bf1 8b3e
00000240: 3936 c5bd 56e4 cf3e 283c c1be 6d8c 2cbd
00000250: fc7b d63e 6cb1 cd3e bcba 163f c6c3 91bd
00000260: d011 a53e 2f59 cf3e 2549 6a3e f950 973e
00000270: 5d45 2b3f b201 083f dd8a a5bd 2373 553f
00000280: 0db3 bf3d 6324 dd3e 4a8e 7ebf d9d3 bc3e
00000290: cb3b 303f dcf2 56be 22f9 653f ec13 efbe
000002a0: 8ed3 04bf 2bd2 25bf 1c19 11bf edfe 0d3f
000002b0: 402e 9f3e 4732 d63e e080 70bd 1ec4 6e3e
000002c0: e346 c03e aaaf 0c3d 9d8b 213f f0d1 cc3f
000002d0: 3e7b 1dbe 57ec 553e 6811 403a 195e 673e
000002e0: 9fcf 2a3d d972 713e 06e8 3f3f 4d0d 4e3f
000002f0: cdbf 043c 8be1 c03e 7377 9a3e b5e6 713e
00000300: b391 9b3e 7c08 df3d 7d80 e63e 28e6 023e
00000310: ce20 303e 1b00 863e c6fe 063e 8a8e 873e
00000320: 21af 1d3f 5cd1 fc3e 5886 093f bbe1 20bf
00000330: a469 b43f 7b25 cc3d a373 b23d c208 483e
00000340: 68d4 553f 32ea 0c3f 0f1a 493f bb3a 303f
00000350: 3c29 043f 330a c0be f451 ce3d e49c 04bf
00000360: 6fde 293f f344 32be 1b80 553f 155b c33e
00000370: d3b1 57be 33a4 bf3d 5393 95bd bf10 193f
00000380: 1599 fa3e 2011 133f c6ad f8be 0492 823e
00000390: 5a21 833f 6d64 ee3e d4f6 813f b182 1e3c
000003a0: 169c 943e 7d20 013f aba9 d63c fda1 8f3f
000003b0: f084 9d3d 1014 0fbf 95ca d63d eb4a 0a3f
000003c0: a864 41bf 3c44 b73e 78a7 f83e 33a5 f13d
000003d0: 044b dcbd 6172 883f 0128 4b3e a7b7 51bd
000003e0: 73a4 f0bc 9e6a b33e 17ff 603f 6825 363f
000003f0: 3aa5 3f3f 03a1 cd3e 25f7 4c3e a9a7 75bc

action_model._discrete_distribution.branches.0.bias f4 [25]
0.3255054 0.30482695 0.31591743 0.24036403 0.29312417 0.25497347 0.31801412 0.29132843
0.1817495 0.3010904 0.3505175 0.2483044 0.3555082 0.3041013 0.2627348 0.3449423
0.072947875 0.41038737 0.3710368 0.25198182 0.37416992 0.21156016 0.14871539 0.15828067
0.2639755
00000000: a5a8 a63e 4712 9c3e eebf a13e fd21 763e
00000010: 5f14 963e e28b 823e bfd2 a23e 0029 953e
00000020: 8a1c 3a3e 8528 9a3e 0877 b33e 8243 7e3e
00000030: 2c05 b63e 2ab3 9b3e 2d85 863e 479c b03e
00000040: b265 953d 4b1e d23e 89f8 bd3e c303 813e
00000050: 3393 bf3e 3aa3 583e d948 183e 5414 223e
00000060: cc27 873e

action_model._discrete_distribution.branches.1.weight f4 [6, 20]
-0.02688152 0.060121212 0.10240615 0.0740985 0.05941637 0.0779258 0.0128520625 0.08297942
0.07741367 0.055735335 0.09135661 0.037420325 0.060684897 0.053241115 0.052203566 0.10370647
0.07242832 0.07111996 0.061510067 0.07826013 -0.05966462 0.08960003 0.09161673 0.10205086
0.065559715 0.03958996 0.068316594 0.052821945 0.06858498 0.06440775 0.06148188 0.1017581
0.06297228 0.03446525 0.04354554 0.06203622 0.054130547 0.07555162 0.076167494 0.052073203
-0.039911583 0.04167258 0.08053421 0.04570911 0.025711885 0.09149442 0.12490218 0.05914488
0.0906931 0.07233037 0.08348092 0.04891538 0.096164554 0.07770637 0.045660272 0.042170208
0.0775259 0.09843392 0.06838342 0.0764774 -0.1804852 0.061103616 0.08608029 0.05781598
0.08090518 0.113309756 0.07771102 0.08605213 0.04060194 0.06830346 0.09689151 0.035153963
0.04873309 0.057604812 0.087953985 0.085502595 0.073690206 0.11039725 0.052106924 0.0689046
0.004243931 0.062393386 0.084918074 0.09172432 0.048441213 0.06312649 0.046640024 0.07314105
0.07124725 0.055084657 0.037052464 0.07922061 0.05203506 0.017201379 0.066240236 0.09501789
0.048282713 0.08610376 0.062387876 0.07108459 -0.10264052 0.02802268 0.06062073 0.007584394
0.0632956 0.12089522 0.08183004 0.083819814 0.07475603 0.102713086 0.057671826 0.031175531
0.08941584 0.039679978 0.1043845 0.07996156 0.04984793 0.13821429 0.09535776 0.060442645
00000000: a236 dcbc a941 763d 51ba d13d f4c0 973d
00000010: 945e 733d 9097 9f3d 7591 523c 1df1 a93d
00000020: 0f8b 9e3d bc4a 643d 2d19 bb3d 0e46 193d
00000030: ba90 783d 5b13 5a3d 68d3 553d 0f64 d43d
00000040: 4d55 943d 57a7 913d fbf1 7b3d d946 a03d
00000050: e362 74bd 3880 b73d 8da1 bb3d 0b00 d13d
00000060: 2c44 863d 1529 223d 92e9 8b3d d35b 583d
00000070: 4876 8c3d 36e8 833d 6cd4 7b3d 8d66 d03d
00000080: 9cf7 803d 6f2b 0d3d cf5c 323d b119 7e3d
00000090: feb7 5d3d cfba 9a3d b4fd 9b3d b64a 553d
000000a0: 547a 23bd deb0 2a3d 1fef a43d 7a39 3b3d
000000b0: bba1 d23c 6d61 bb3d b7cc ff3d e741 723d
000000c0: 4ebd b93d f221 943d 0bf8 aa3d 7e5b 483d
000000d0: ecf1 c43d 8424 9f3d 4406 3b3d abba 2c3d
000000e0: e6c5 9e3d b997 c93d 9b0c 8c3d 2fa0 9c3d
000000f0: 1dd1 38be c947 7a3d dd4a b03d 73d0 6c3d
00000100: 9db1 a53d f20e e83d f526 9f3d 193c b03d
00000110: 384e 263d afe2 8b3d 0e6f c63d 9afd 0f3d
00000120: 599c 473d 06f3 6b3d 3821 b43d fc1b af3d
00000130: e4ea 963d f417 e23d 126e 553d db1d 8d3d
00000140: ac10 8b3b 3590 7f3d 87e9 ad3d f6d9 bb3d
00000150: 4b6a 463d 7648 813d 9c09 3f3d faca 953d
00000160: 14ea 913d 73a0 613d 53c4 173d 6a3e a23d
00000170: b722 553d e8e9 8c3c f6a8 873d bd98 c23d
00000180: 18c4 453d 2b57 b03d 6e8a 7f3d cc94 913d
00000190: 3135 d2bd d28f e53c 714d 783d 8286 f83b
000001a0: 20a1 813d ea97 f73d 8296 a73d b9a9 ab3d
000001b0: b119 993d 3d5b d23d 4b39 6c3d d463 ff3c
000001c0: a71f b73d 7987 223d 8ac7 d53d e3c2 a33d
000001d0: 582d 4c3d 0c88 0d3e ee4a c33d b592 773d

action_model._discrete_distribution.branches.1.bias f4 [6]
0.05102465 0.03765536 0.06887739 0.036980562 0.044133678 0.052252237
00000000: 39ff 503d 823c 1a3d 970f 8d3d ee78 173d
00000010: 84c5 343d 7106 563d

action_model._discrete_distribution.branches.2.weight f4 [4, 20]
-0.25044605 0.28411037 0.11642446 0.12031589 0.11970984 0.094884455 0.123193905 0.12755911
0.17131676 0.19476369 0.080498666 0.19093822 0.1390178 0.17045 0.17644572 0.1549229
0.15170804 0.12316336 0.22598109 0.19149609 -0.23313265 0.16838548 0.15525006 0.23527919
0.13795379 0.20131351 -0.022640852 0.20055437 0.13847837 0.2648594 0.11778736 0.25157776
0.18521534 0.18167414 0.14458725 0.17128113 0.1819069 0.19484964 0.13779137 0.16479005
-0.090107 0.21659428 0.14359741 0.18519092 0.17677483 0.14586288 0.0882645 0.14008436
0.14411724 0.10214984 0.14787288 0.13977452 0.11526057 0.1740794 0.19663514 0.23255228
0.13224077 0.17046908 0.108937174 0.18403243 -0.11510228 0.18894577 0.15857665 0.20201539
0.15941449 0.13840549 0.22925165 0.17957757 0.1719665 0.17943111 0.2101709 0.19324145
0.23982926 0.22205012 0.2623677 0.12468328 0.20507872 0.14667867 0.24087164 0.09751116
00000000: 773a 80be ea76 913e f36f ee3d 2d68 f63d
00000010: 6f2a f53d c852 c23d 164d fc3d db9e 023e
00000020: a96d 2f3e 2270 473e 7cdc a43d 4f85 433e
00000030: af5a 0e3e 728a 2e3e 30ae 343e 1ca4 1e3e
00000040: 5a59 1b3e 123d fc3d 9667 673e 8d17 443e
00000050: 53ba 6ebe 3e6d 2c3e dff9 1e3e 07ed 703e
00000060: c243 0d3e 2125 4e3e 4f79 b9bc 205e 4d3e
00000070: 46cd 0d3e a79b 873e 803a f13d cdce 803e
00000080: 17a9 3d3e c908 3a3e ae0e 143e 5264 2f3e
00000090: cd45 3a3e aa86 473e 2e19 0d3e b9be 283e
000000a0: 058a b8bd e4ca 5d3e 330b 133e b0a2 3d3e
000000b0: 7604 353e 145d 153e 05c4 b43d 4672 0f3e
000000c0: 7893 133e ef33 d13d fd6b 173e 0d21 0f3e
000000d0: bc0d ec3d df41 323e b95a 493e 2f22 6e3e
000000e0: 206a 073e 728f 2e3e 741a df3d ff72 3c3e
000000f0: bfba ebbd 007b 413e eb61 223e 1fdd 4e3e
00000100: 8d3d 233e 2bba 0d3e f2c0 6a3e 2fe3 373e
00000110: fc17 303e cabc 373e 0a37 573e 16e1 453e
00000120: cd95 753e 1b61 633e 0f55 863e f359 ff3d
00000130: 2800 523e ef32 163e 0ea7 763e eeb3 c73d

action_model._discrete_distribution.branches.2.bias f4 [4]
0.13906989 0.16492625 0.14474134 0.18963213
00000000: 5668 0e3e 6de2 283e 1337 143e ed2e 423e

action_model._discrete_distribution.branches.3.weight f4 [3, 20]
-0.550262 0.7595382 0.119097576 0.675654 0.085014716 0.06267038 0.2656136 0.58248466
0.074269325 0.834914 0.24545673 0.8505831 0.7202334 0.81310016 0.61050266 3.8523776e-06
0.44701165 0.028275253 0.63562363 0.6509075 -0.0047392678 0.3407289 0.1878898 0.07798492
0.115511246 0.14893164 0.19665624 0.07728134 0.21076852 0.15001854 0.19264354 0.096353896
0.11261568 0.30206627 0.25984564 0.2333958 0.2635109 0.20209734 0.17877787 0.22287247
-0.027609576 -0.061765958 0.48884344 -0.14742489 0.5148787 0.52109003 0.31105933 -0.04805709
0.5080204 -0.21704352 0.30540302 -0.29220042 -0.14613803 -0.18131924 -0.0793888 0.6179324
0.07914791 0.5850246 0.0007337611 -0.06010604
00000000: f8dd 0cbf 1871 423f 6ee9 f33d a9f7 2c3f
00000010: 321c ae3d 5459 803d 81fe 873e b71d 153f
00000020: 841a 983d edbc 553f 0259 7b3e d0bf 593f
00000030: 3761 383f 5527 503f e749 1c3f ac43 8136
00000040: b6de e43e 81a1 e73c 3bb8 223f e0a1 263f
00000050: dc4b 9bbb 0574 ae3e 2f66 403e 8fb6 9f3d
00000060: 2991 ec3d 8981 183e 4160 493e ae45 9e3d
00000070: b4d3 573e 769e 193e 5944 453e 3155 c53d
00000080: 0da3 e63d 6ea8 9a3e 7d0a 853e 4fff 6e3e
00000090: e7ea 863e 9bf2 4e3e 8c11 373e ae38 643e
000000a0: 7a2d e2bc 4dfe 7cbd b049 fa3e 8df6 16be
000000b0: 17cf 033f 2866 053f 2b43 9f3e 83d7 44bd
000000c0: a00d 023f a840 5ebe c95d 9c3e 4b9b 95be
000000d0: 35a5 15be c0ab 39be 9896 a2bd d130 1e3f
000000e0: 4d18 a23d 2cc4 153f e059 403a c031 76bd

action_model._discrete_distribution.branches.3.bias f4 [3]
0.47584525 0.08518646 0.121291734
00000000: fda1 f33e 3d76 ae3d cd67 f83d
