Assets/AI Data/SimpleMoveAgent.onnx (onnx, 4565 bytes, 4 tensors)

network_body._body_endoder.seq_layers.0.weight f4 [20, 2]
000000 2f b0 45 3f 37 96 9f 3f 65 81 2f c0 0b 53 98 be
       0.7722196 1.2467717 -2.7422726 -0.29750857
000010 bc 82 bf 3e ae 36 3f 3f 4c 13 4f bf c3 7a d3 3f
       0.3740443 0.7469281 -0.8088882 1.6521839
000020 f6 87 89 bf 65 2b f2 3d 4a aa 5a 3f cf c0 24 3e
       -1.0744617 0.11824683 0.8541609 0.16089176
000030 7b fb f3 be 75 0c 43 3e c5 ed a9 bf 84 99 37 3e
       -0.47652802 0.1904772 -1.3275687 0.17929655
000040 7e 8f cd bf 9a d6 6d bf 7d 67 da be cf 5b 81 bf
       -1.6059415 -0.9290558 -0.4265708 -1.0106143
000050 d3 a9 f2 bd 68 58 bb 3e 7e 7c c8 be 08 4f f9 be
       -0.11848798 0.36590886 -0.3915748 -0.4869311
000060 7a c0 09 3e d9 50 97 bf 5d 7d ac be 69 d0 ef 3f
       0.1345233 -1.1821548 -0.33689395 1.8735477
000070 f2 f1 f3 3c f1 48 ad 3f bf d2 39 3f ed f3 29 3f
       0.029778454 1.3537885 0.725872 0.66387826
000080 ba e8 4d bf 82 41 5a 3f ce 74 5f 3f d0 c2 ac bf
       -0.8043324 0.85256207 0.87287605 -1.3496952
000090 22 3a 1c be 85 5e 8b bf e6 26 a1 bf 0c 09 10 bf
       -0.15256551 -1.088822 -1.2589996 -0.56263804

network_body._body_endoder.seq_layers.0.bias f4 [20]
000000 e4 33 85 3e 6d 56 65 3e 29 a7 72 3e 8b 6a 91 3e
       0.26016152 0.2239625 0.23696579 0.28401598
000010 29 94 c7 3d 11 cc 05 3f 5e 08 34 3e e5 c5 62 3e
       0.09745056 0.52264506 0.17581317 0.22145803
000020 fb 4c 89 3e 35 06 6e 3e 0e b3 48 bd 17 49 5f 3e
       0.26816544 0.23244555 -0.048998885 0.21805225
000030 7c 2d 8b 3e 26 bb b0 3e ab fe b5 3e fb f4 d4 3e
       0.2718314 0.34517783 0.3554586 0.41593155
000040 28 8e 82 3e ba 6f f0 3e e6 ef a3 3e d7 c2 4c 3e
       0.25499082 0.4696024 0.32018965 0.199962

action_model._discrete_distribution.branches.0.weight f4 [4, 20]
000000 4b a1 90 3e f5 0b 39 3e 74 f8 73 3e eb fe 3c 3e
       0.28248057 0.18070967 0.23825246 0.18456618
000010 d5 50 c0 3d cc c3 8f 3e bc 17 86 3d 55 75 1b 3e
       0.093904175 0.2807907 0.06547496 0.15181477
000020 f9 7f 3f 3e e3 97 b2 3e b9 8b b7 bd 52 e2 8a 3e
       0.18701161 0.34881505 -0.08962197 0.27125794
000030 b2 70 b0 3e e1 71 43 3e 12 69 38 3e c7 91 8f 3e
       0.3446098 0.1908641 0.18008831 0.28040907
000040 6c 57 1d 3e 3c da ab 3e d8 ee 95 3e 7e 53 25 3e
       0.1536538 0.33564937 0.29283786 0.16145131
000050 c7 ce ea bd cd 79 4d be 5c 9c 84 bd f0 0a 44 bc
       -0.11465221 -0.20065995 -0.06475136 -0.011965498
000060 f5 73 0e be 21 1b 5e bd 9e 3b 35 bb 44 65 f1 bd
       -0.13911422 -0.05422509 -0.0027653943 -0.11786893
000070 d4 b7 82 bd 11 ae 93 bd bf ec 31 3d b1 fe 7d bc
       -0.06382719 -0.07210935 0.04343867 -0.015502618
000080 96 0c 3d bd 42 06 92 bc 1d eb dd 3b 9c b9 af bd
       -0.04615458 -0.01782525 0.0067724125 -0.08580324
000090 65 51 a7 bd b9 ff c3 bd b8 c5 35 bd d8 e8 79 bc
       -0.08169822 -0.095702596 -0.044378012 -0.015253268
0000a0 e5 75 32 bd 21 d2 c7 3d 79 9a 1a bd 7f e6 77 3d
       -0.043569464 0.09756876 -0.037744973 0.060522553
0000b0 79 81 f4 3d bf 21 4e 3d e8 2a a2 3d 3b d1 ee 3d
       0.119387574 0.05032515 0.0791834 0.11661001
0000c0 5f 52 56 bd a8 62 0a be fd 76 f9 3d 18 43 be bd
       -0.05232465 -0.13514197 0.12180898 -0.09290141
0000d0 50 60 6e bd 40 fd d0 3c 31 66 1a 3c 32 7e 59 3d
       -0.05819732 0.025511384 0.009423778 0.053098865
0000e0 89 11 81 3d 25 46 58 bc 99 24 b6 bd 82 26 dc 3b
       0.06302173 -0.0132003175 -0.08893699 0.0067184577
0000f0 6b bc be be 52 28 de bd fe 70 5a be bf b9 3c be
       -0.37253127 -0.10847534 -0.21332166 -0.18430232
000100 83 38 2b 3b 00 5a 0b bf bf 76 d9 3d 7d 24 86 bd
       0.0026126213 -0.54434204 0.10618352 -0.06549928
000110 5e 65 23 be 1d 26 4a be eb b9 b5 3e f6 47 36 be
       -0.15956637 -0.19741102 0.35493407 -0.17800888
000120 61 fe 83 be 7f d7 4f be 4e 72 6a be c9 3c ea be
       -0.25780013 -0.20297049 -0.22895166 -0.457495
000130 c7 06 2d be 3a 3f bc be 1d 22 95 be b1 39 e2 bd
       -0.16897117 -0.36766988 -0.2912759 -0.1104616

action_model._discrete_distribution.branches.0.bias f4 [4]
000000 de 41 c7 3e a4 3c 68 be 11 de a0 3d 5e ab 2b bf
       0.3891744 -0.22679383 0.07854856 -0.6705836
