Assets/Test AI Data/SimpleMoveAgent.onnx (onnx, 4565 bytes, 4 tensors)

network_body._body_endoder.seq_layers.0.weight f4 [20, 2]
000000 ae 30 80 be 43 01 06 3f 42 b4 5b bd 02 15 b2 3d
       -0.2503714 0.52345675 -0.053638704 0.08695413
000010 8c 01 d0 3e 75 69 f8 be 02 08 b5 3d 97 d3 84 3f
       0.4062618 -0.48517957 0.08839418 1.0377072
000020 64 bc 36 be 5b 7b 17 bf 84 c2 ca 3e a2 ec ad bf
       -0.17845303 -0.591726 0.3960153 -1.358784
000030 dd 01 20 3d fc 63 9c bf 5a 7b 4e 3f 92 0e 86 be
       0.039064277 -1.2218013 0.8065697 -0.2618299
000040 32 c0 c5 3c b1 22 9a bf 8d f4 59 bf c6 0a 77 bd
       0.024139497 -1.2041837 -0.8513878 -0.06031301
000050 ac 12 22 3e c9 5a be 3e c3 d0 c7 3f c6 77 85 bf
       0.15827435 0.3717864 1.5610584 -1.0427177
000060 de 0f f6 3d d0 7f 46 bf 66 d5 cb bd a9 7b 87 3e
       0.12014745 -0.77538776 -0.09952812 0.26461533
000070 8e 48 fe bc 54 2c a5 be d4 a0 7a bd 7d 3e a3 bf
       -0.031040456 -0.32260382 -0.061188534 -1.2753445
000080 63 c2 df 3e 25 fb 31 3f 36 22 a4 be df fb 39 be
       0.43702993 0.6952384 -0.3205735 -0.18162487
000090 1c 37 e7 3e 15 f3 2b bf 6e 26 56 bf 43 d5 7b 3f
       0.45159233 -0.6716779 -0.8365239 0.98372287

network_body._body_endoder.seq_layers.0.bias f4 [20]
000000 07 36 ea 3c e1 58 bb bd d1 fe 83 3e 79 17 dd 3d
       0.028590215 -0.09147812 0.25780347 0.10795493
000010 5d 54 7f 3e f7 93 8f 3e f4 77 84 3e f9 58 4a 3e
       0.24934526 0.28042576 0.25872767 0.19760503
000020 d0 ac 9e 3e 79 60 2e 3e 96 cc 98 3d f5 a1 8f 3e
       0.3099122 0.17028989 0.07460897 0.2805325
000030 49 fd 68 3e 98 77 5a bd 9f e7 93 3e 36 fc a0 3e
       0.2275287 -0.05333671 0.2888765 0.31442422
000040 37 8e a4 3d 48 e5 3a 3e 62 c1 8d 3e 29 b9 0c 3d
       0.08034938 0.18251526 0.27686602 0.03435627

action_model._discrete_distribution.branches.0.weight f4 [4, 20]
000000 77 d0 c7 3d 06 48 a5 3c c6 f0 69 3d 12 74 16 3e
       0.097565584 0.020175945 0.057114385 0.14692715
000010 9e 78 1a 3c cd 71 0b 3d e2 d6 27 3c ce e2 e8 3d
       0.009428171 0.034044076 0.010244103 0.113713846
000020 2c 5e 47 3d 1a ad a3 3d 3e 8e 03 3e d2 eb 72 3d
       0.048673794 0.07992001 0.1284723 0.059306927
000030 57 8e 6e 3c 3c 95 98 3d b7 67 8c bb 66 72 29 3d
       0.014560304 0.07450339 -0.0042848247 0.041368864
000040 a0 30 0a 3e ec 12 b1 3d 66 b7 1d 3d 30 ec d1 3d
       0.13495111 0.08646187 0.03850498 0.10250127
000050 6e 7a 2a bc 07 72 c3 bc 90 2e ac bd 03 b5 05 bd
       -0.010405166 -0.023858083 -0.084073186 -0.03264333
000060 f8 cf 59 be 95 4c 36 be cf 95 31 be 8b 35 5d bd
       -0.2127074 -0.17802651 -0.17342304 -0.05400614
000070 da a2 3a be d1 e9 d6 bd 31 f2 63 bc 29 3b ee bd
       -0.18226185 -0.10493816 -0.013912723 -0.11632378
000080 99 d1 db bd bd ca d4 bb fb d2 1a be 0c 5a 32 be
       -0.10733337 -0.006493895 -0.15119545 -0.17417163
000090 fc e8 46 bd 77 d0 d9 bd 3f 01 f8 bd b1 e1 88 bd
       -0.048562035 -0.10635465 -0.12109613 -0.06683672
0000a0 44 1c c2 bc ea 66 33 3d 8e 65 30 be f0 3d d7 bc
       -0.023695119 0.04379932 -0.1722624 -0.026274651
0000b0 c4 f6 83 bd f3 89 16 be b8 2d 27 be 35 02 cb bd
       -0.06443551 -0.14701061 -0.16326034 -0.0991253
0000c0 fc 2b 05 be b0 c2 48 bd fb e2 b3 bb 77 97 16 be
       -0.1300506 -0.049013793 -0.0054897047 -0.14706217
0000d0 bb 9a d0 bd bf 9e 21 bc 46 df ac bd 58 1b ea bd
       -0.101857625 -0.009864508 -0.084410235 -0.11430997
0000e0 0f 51 ae bc 4d a3 e5 bc c1 36 3a be cd 2e d6 bc
       -0.021278886 -0.02803197 -0.1818495 -0.026145363
0000f0 1a 0d a9 bc a2 87 96 bd 6f e0 18 3e fb e7 7d 3c
       -0.02063613 -0.07350089 0.14929365 0.015497203
000100 a8 85 37 3e 96 35 06 3e d4 69 2f 3e 91 49 99 3d
       0.1792208 0.13106379 0.17130214 0.07484735
000110 b5 e2 30 3e 5a 4f 99 3d 37 e5 1e bd f3 0f c5 3d
       0.17273982 0.07485838 -0.038792815 0.09622183
000120 f1 f5 30 3e 52 56 10 bd 2d db 37 3e e4 14 2b 3e
       0.17281319 -0.03523857 0.17954703 0.16707188
000130 9c ab 07 3d 36 b9 ac 3d da 63 30 3e fe 9f 49 3c
       0.033122644 0.08433764 0.1722559 0.0123062115

action_model._discrete_distribution.branches.0.bias f4 [4]
000000 ed 65 18 3e bb d8 38 be 0a 73 02 be 1e 0f b6 3d
       0.14882632 -0.18051426 -0.12739196 0.08889602
